models/v2_net.pth (torch_old, 913882 bytes, 65 tensors)

weight f4 [16, 1, 3, 3]
00000000: 227b ea3d 2caa 5a3e ba06 a6be 89b7 c1be
00000010: 25ac 9abd 35e1 7bbe 8536 c7bd 4d2c d73e
00000020: 19c6 c83e 10f1 6bbb 8df3 16be 6276 133d
00000030: 2431 a1be c228 78be 5acb 14be 9a03 883d
00000040: 8411 143e 756d 793e 605f 6fbe 1ee4 a8be
00000050: 3121 f03e c997 3abd bb66 d1be 0c8b ce3e
00000060: 2af8 9a3d 3f8f 46bd 29b0 0f3e a05f fa3e
00000070: 9bbc 6c3e 2c4a bdbd 5f8c 953e 3f44 53be
00000080: b460 10bf 2581 363e 0732 6abe 39af b6bd
00000090: ceaa 5abe fcc3 883d 6f90 a73e cfcb d1bc
000000a0: 519b 8e3d 4982 173e 598d a83e 1e4e 4dbd
000000b0: 3ab7 d2be 20c4 da3d 9ad5 20bd 92d2 a2bc
000000c0: dbbb 4f3e fcde d6bd ec80 79bd 7aa3 433e
000000d0: 4d04 973d 87c6 1b3e 6b50 023f e9ee 68bd
000000e0: c5d6 e93d 4332 4dbf 6e6a d5be c769 c23d
000000f0: c03d 8d3e 7f02 f43e aa82 3dbe a8f9 a03c
00000100: c8a9 b0be 085a 003e 56b6 1b3e 4d2c debe
00000110: 60ed dfbe cdd0 173f a3a8 993e 55e9 3e3d
00000120: d35a 4bbe ee36 dcbe c156 81be 6a07 23be
00000130: 968d 4dbe cfe6 8d3d 90eb 883e 0a2c 043f
00000140: 2658 ec3e 8f1e 423e 4352 04be 2bee 90bd
00000150: d67b c7be ea4f 763e 4b74 cd3e e766 e5be
00000160: 01e0 b1bd 1263 963e 25d3 d63d e59a f23d
00000170: 6899 3e3e 0a80 1bbe a89f 26be 0d33 79be
00000180: f276 0c3c 0317 f5bd 5153 51be 5a14 833e
00000190: 209c 233f 0f4d 073f eba6 c8be 097c dbbe
000001a0: b590 97be ff9e 35be db62 99bd 7136 b7bb
000001b0: a06f 78be 1b07 bebc aa78 843a f612 6b3f
000001c0: e47e 5cbf 9b5f d13e 178a 80bc d2ba 75be
000001d0: 100a 853d 2393 c13e 1b54 893e 2be3 123e
000001e0: b99d 5a3d 0bac 6c3d b7b5 843d 1c30 bfbe
000001f0: b759 e5be bd4b 27be a7af d2be 327b b0bc
00000200: b9a0 053f cad7 003f f6a9 17bd de05 33bf
00000210: a74b 4fbe 7e80 9f3e d403 ff3c 471e dabd
00000220: 7f9a 6ebe 6cb9 cdbe 92c6 3d3d 7212 253e
00000230: a35c 283d df79 cd3d b22d 0e3e 58bc 15bd
0.11449267 0.21353978 -0.32427007 -0.3783534 -0.07552365 -0.24597628 -0.09727196 0.42025986
0.39213637 -0.0036001839 -0.14741345 0.03600157 -0.31482804 -0.24234298 -0.14530697 0.06641312
0.14459807 0.24358161 -0.23376226 -0.3298654 0.46900323 -0.04555491 -0.4089869 0.4034046
0.07566865 -0.048476454 0.14032044 0.4890108 0.23118822 -0.09242663 0.29208657 -0.20631503
-0.5639756 0.17822702 -0.22870646 -0.0892014 -0.2135422 0.06678006 0.32727382 -0.025609879
0.06963218 0.14795794 0.3292034 -0.050123326 -0.41155416 0.10681939 -0.039266206 -0.019875798
0.20286505 -0.1049175 -0.060913965 0.1910533 0.07373867 0.15212451 0.5090396 -0.056868467
0.11417917 -0.8015482 -0.41682762 0.09492832 0.27586174 0.47658154 -0.18506876 0.019650295
-0.34504533 0.12534344 0.15206274 -0.43393174 -0.4373579 0.5930298 0.30011472 0.04660924
-0.19858865 -0.43010658 -0.252615 -0.15920797 -0.20073542 0.06928789 0.2674222 0.516297
0.46161002 0.1895697 -0.12922005 -0.07076677 -0.38961667 0.24053922 0.40127787 -0.4480507
-0.086853035 0.2937246 0.104894914 0.1184595 0.18613207 -0.15185562 -0.16271842 -0.2433588
0.008573281 -0.1196728 -0.20441939 0.25601465 0.639101 0.5285196 -0.39189848 -0.4286807
-0.2960259 -0.17736433 -0.07489558 -0.0055912067 -0.24261332 -0.023196748 0.0010106761 0.9182581
-0.8613112 0.40893254 -0.015690846 -0.23997048 0.0649606 0.3780757 0.2682198 0.1434447
0.053373072 0.05778126 0.06479972 -0.37341392 -0.4479501 -0.16337486 -0.41149637 -0.02154312
0.5219837 0.5032927 -0.03702732 -0.6993083 -0.20243703 0.3115272 0.031129755 -0.10650306
-0.23301123 -0.40180528 0.04633195 0.16120318 0.04110397 0.10033011 0.13884619 -0.03655657

weight f4 [16]
00000000: ce49 2a3e 95ff 0d3e ebdc 553e 5ec0 8b3e
00000010: 40ac 063e eb25 1d3e 2b12 373e 10c9 4c3e
00000020: 70e2 873e 4fa8 943e e46f 713e 1966 6c3e
00000030: 90e1 8f3e 2216 993e a665 8b3e d66c 3e3e
0.16629717 0.13867028 0.20885055 0.27295202 0.13151646 0.15346496 0.17878024 0.19998574
0.26539946 0.2903466 0.23577839 0.23085822 0.28101778 0.29899698 0.2722599 0.18596205

bias f4 [16]
00000000: dfff 963d 230c babd 5691 c03d a7da edbd
00000010: 5d50 4dbd 97a4 24be 8eaa fc3d 3ea2 423d
00000020: 9fc5 c3bd d521 03be b45c 5dbe 033b ff3c
00000030: f342 f13d d2cb 62be 60d0 5fbe 1bb2 05be
0.07373022 -0.09084346 0.09402721 -0.1161397 -0.05012547 -0.16078411 0.12337218 0.047518007
-0.095591776 -0.12805875 -0.21617395 0.031156069 0.11780348 -0.22148064 -0.21856833 -0.13056223

running_mean f4 [16]
00000000: fedd 6540 4434 40c2 62d7 01c0 db31 0dbf
00000010: 23d8 f141 c70b 7642 bdd5 51c0 f51f 26c0
00000020: 802e d040 192b e63d 639b 73c2 425d 1140
00000030: d256 81bf 6ee1 76bf 3564 16bf f7b1 08c2
3.5916743 -48.05104 -2.028771 -0.551542 30.230536 61.5115 -3.2786705 -2.5957005
6.5056763 0.11238689 -60.901745 2.271317 -1.010462 -0.9643773 -0.58746654 -34.173794

running_var f4 [16]
00000000: e87a 2444 08ee 5644 14f3 9644 1f9f 0645
00000010: 0241 c543 b975 8644 5c9a 0844 a376 ce44
00000020: 15ba 1a45 768f 8b44 9dda 8f44 cd3f 0545
00000030: 78fa 2f44 00d8 cd44 8f2c 4143 fce0 6244
657.9204 859.71924 1207.5962 2153.945 394.50787 1075.6788 546.41187 1651.7074
2475.6301 1116.4832 1150.8317 2131.9875 703.9136 1646.75 193.17406 907.5154

weight f4 [12, 16, 3, 3]
00000000: 3ee5 2d3d e803 b6ba 652d b7bd e6b5 ef3b
00000010: 1c41 1d3c f7d3 14bd 1a15 553d f2ed b0bb
00000020: 9b3c 58bc 6519 ca3c 2b7f 3b3d 7c11 7f3c
00000030: 0f52 ff3b d99e 213b f49e bdbc e731 d3bc
00000040: 1cf3 d0bc 0ea8 08bc 7f3f fc3d 745d 28bd
00000050: f280 fdbc adc8 683d 48b1 46be 38c6 7b3d
00000060: 7c38 b7bd 03b9 1bbe 9d9f 383e 289c abbd
00000070: 7d08 8ebd 827a 57bd 7b2b ec3b 4552 92bd
00000080: 0eb0 33bd aa11 9f3c d725 cfbc 0651 66bc
00000090: 2993 643c 1766 e53c 935b 023c e56c e43c
000000a0: a3da 48bc be11 b5bc b219 49bd 2abc acba
000000b0: bb55 06bd 44a0 3f3c cc60 3fbb 3561 4d3c
000000c0: b617 963b d907 9b3c 67dd 443c c0e3 3e3c
000000d0: 968f 003c 4b52 afbc 4f49 643d d0d6 f43d
000000e0: e81a d0bd 3289 223d 7fe9 a23c 7ea2 293b
000000f0: 9830 77bc 160e 97bc 13b4 743c b3b2 babd
00000100: fe63 f5bc e208 e3bb 1b52 74bd 47ce 673c
00000110: 7242 e03c 4340 2e3b 5406 fd3c c919 773d
00000120: 4d41 643d 423b 163d c9d1 1b3d 241e 87bd
00000130: b816 8dbc 0a49 ee3b 02a5 8fbc 9150 91bc
00000140: 8744 c6bd e518 07bb 3f95 85bd 7434 89bd
00000150: a926 1e3d a850 243d 979d 123d b540 c6bc
00000160: 1974 913c ea1c 353c cca4 6ebc 96c5 10bc
00000170: 3741 023d 4c7b 8fbc c711 da3c 9208 2e3c
00000180: 25d2 3d3c a1f8 273d fe81 0cbd d556 13bd
00000190: b4c8 82bd 3945 abbc e2d7 e7bc 1d80 643d
000001a0: ede2 8a3d 0b30 7bbd ea60 b23b 2825 763d
000001b0: e837 b43d 661a fcbd 2df0 273c a002 d8bd
000001c0: bdd4 20bd 185f dd3d 82eb 76be 2d7a 173e
000001d0: 4c25 9a3d 2673 db3c 82b7 753b 8bfa aebd
000001e0: 0e13 f53c f582 103c c6f6 96bd 79bd c03c
000001f0: c51c 223b 8fc1 b1bc a063 233d ee64 813a
00000200: 346c 8bba ac9c bbbd f1e5 65bd 286a cbbc
00000210: 2901 03be 3fad 9cbd e435 30bd 8864 b2bc
00000220: 6814 feba 9005 f83b 7998 973b 3cdb 0b3c
00000230: 69ec d93b 8e15 193b 82f7 5d3c f7f4 afba
00000240: c7a7 833c ff5b 743d 29a1 cc3d 789d debd
00000250: a168 93bd 629a 473a 154d 6abd 58af 95bc
00000260: 6277 153d 8d63 d7bc 6e36 293c 8d01 1b3c
00000270: 17c8 84bc ae87 97bc 0b95 61bb af55 13bb
00000280: 5343 1dbc b8cb e33b 0c64 41bd 002c 2fbb
00000290: 623e cb3c dc6b 743c b765 75bc 2f29 bfbc
000002a0: 831f b03c ebd4 9f3b 7dba 0a3d 9187 013a
000002b0: c496 b33c 14a6 523d eaff a5bc 5af6 183d
000002c0: 1511 423d 274d 6ebb ad14 6c3c efbb cabc
000002d0: 848c 30bd e27f bfbc a141 3d3c d0a4 9a3c
000002e0: ff03 213d 959d e93c d266 a13b 9d16 cb3b
000002f0: 8c0a 64bd eaeb 9b3c d4da 073d 0e5b 4b3d
00000300: 5936 4dbc 0f95 833b c196 5c3c f578 adbc
00000310: d9ec 7ebc eb19 29bc 1d6b cabd b0d3 b8bd
00000320: 1baa 493d 23f7 ac3d 9967 66bd eb88 e1bd
00000330: 546f cf3d 1d96 a63d ab10 a23d 93d3 eb3d
00000340: 61bb 023e 91d3 e13d 656f b9bd 1a98 cbbd
00000350: 3ce5 84bd 264e 78bd 62cb 7ebd 75aa afbd
00000360: b8c8 133c 8c32 1d3d c862 4a3b 68ec 30bd
00000370: d007 333c abd8 55bd f6ca 59bd 6882 1ebd
00000380: 277b 81bd e2e4 ad3c b6c2 883c 2228 9a3b
00000390: 58c0 d3bc d543 f7bc 842c 063c 396f d83c
000003a0: 7548 08bd fd0a a4bc f34d 22bd 5743 f4bb
000003b0: ce8d 4d3b 309c 053b ee00 943c 778d 403b
000003c0: 3a28 543c 1b81 433d 40bb 643c 85c6 81be
000003d0: d1be 15be 5183 aebd d737 893d a97b 303d
000003e0: 51a2 8cbd c361 9a3d 8198 3c3d 29a9 08bd
000003f0: d5c0 8fba ce72 aebc 7296 813d 2278 d83c
0.04245495 -0.0013886662 -0.08944205 0.007315385 0.009598043 -0.036334958 0.052022077 -0.005399459
-0.013198043 0.024670312 0.045775574 0.015568133 0.0077917646 0.002466133 -0.023147084 -0.025780631
-0.025506549 -0.008340849 0.123167984 -0.04110475 -0.030945275 0.056832004 -0.19403565 0.061468333
-0.089463204 -0.15207295 0.18029638 -0.08379394 -0.06935213 -0.052607067 0.0072073317 -0.07144598
-0.04386907 0.019417603 -0.025286598 -0.014057403 0.013951101 0.028002782 0.007956403 0.027883956
-0.012259158 -0.022103187 -0.04909677 -0.0013178636 -0.032796603 0.011695925 -0.0029201983 0.012535383
0.0045804633 0.01892464 0.012015677 0.0116509795 0.007846734 -0.021401545 0.055733975 0.11955035
-0.10161382 0.03968162 0.01988673 0.0025884206 -0.015087269 -0.018439334 0.014935511 -0.091161154
-0.029954907 -0.006928549 -0.059648614 0.014148301 0.027375434 0.0026588596 0.030886807 0.060327325
0.05572634 0.036677606 0.038041864 -0.06597546 -0.017222747 0.0072718905 -0.017534737 -0.017738612
-0.09681039 -0.0020614204 -0.06522607 -0.06699458 0.038611088 0.040115982 0.03579482 -0.024200777
0.017755555 0.011054257 -0.014565658 -0.008836171 0.031800475 -0.017514847 0.026619805 0.0106221605
0.011585747 0.041008595 -0.034303658 -0.03597148 -0.06385937 -0.020907031 -0.028301183 0.05578624
0.06781564 -0.061325114 0.005443682 0.06009403 0.08799726 -0.123097226 0.010250133 -0.10547376
-0.039265383 0.10809153 -0.24113277 0.147927 0.07526645 0.026788305 0.0037493412 -0.08543881
0.029916313 0.008820285 -0.07371287 0.023527848 0.0024736386 -0.021698741 0.03988993 0.0009871998
-0.0010637105 -0.09160742 -0.056127492 -0.024830893 -0.12793411 -0.076502316 -0.043020144 -0.021776453
-0.0019384744 0.0075690225 0.0046263305 0.008536156 0.0066504967 0.0023358795 0.01354778 -0.0013424446
0.016071213 0.059658047 0.09991676 -0.108698785 -0.07197691 0.00076142524 -0.057202417 -0.018272087
0.036490805 -0.026292587 0.010327918 0.009460819 -0.016208692 -0.018497314 -0.0034421112 -0.0022481491
-0.009598571 0.0069517754 -0.047214553 -0.0026729107 0.02481002 0.014918294 -0.014977864 -0.023335068
0.021499401 0.0048776767 0.033869255 0.00049411604 0.021922477 0.051427916 -0.02026363 0.037344314
0.047379572 -0.0036361904 0.014409226 -0.024747817 -0.043102756 -0.023376409 0.011551292 0.018877417
0.03931045 0.028517524 0.004925587 0.006197764 -0.05567412 0.019033391 0.033167675 0.049647383
-0.0125251645 0.004015572 0.013463677 -0.02117584 -0.015559399 -0.010321121 -0.098837115 -0.09024751
0.04923449 0.08445575 -0.056251142 -0.11012443 0.10128656 0.081341006 0.079133354 0.11514964
0.12766792 0.11026681 -0.0905445 -0.099411204 -0.064890355 -0.060621403 -0.06220568 -0.08577434
0.009020023 0.038378283 0.0030881632 -0.043194205 0.010927156 -0.052208584 -0.053172074 -0.038698584
-0.063223176 0.021227304 0.016694408 0.0047044912 -0.025848553 -0.030183712 0.008189324 0.026420223
-0.033272225 -0.02002477 -0.03962512 -0.0074543166 0.003136504 0.0020387284 0.01806685 0.0029381195
0.012949044 0.047730546 0.0139606595 -0.2534677 -0.14623572 -0.0852114 0.06700104 0.04308668
-0.06866897 0.07538178 0.046043877 -0.03336445 -0.0010967503 -0.021294978 0.06327523 0.026424471

weight f4 [28]
00000000: c84a 3c3e 1ebd 893e 1405 813e 3d61 6f3e
00000010: d0cf 4a3e 7881 473e e1c5 5d3e 79c9 7c3e
00000020: 18e3 263e ad3e 603e 3f53 183e 517a 4d3e
00000030: 9331 b23e 9397 343e 6fe6 0a3e de2f 4c3e
00000040: d32b 973d 4bd7 0c3e 65ca 423e 6e40 e63d
00000050: aad4 083e df76 073e cf19 f23d f2d4 2d3e
00000060: 4c40 933d 763c ae3d fbbf dd3d 5150 aa3d
0.18387902 0.26902097 0.25199187 0.23376937 0.19805837 0.19482982 0.21657516 0.2468623
0.16297567 0.21898909 0.14875506 0.20066191 0.34803447 0.17635946 0.13564466 0.19940135
0.07381406 0.13754003 0.1902252 0.11242758 0.13362375 0.1322894 0.11821329 0.16975763
0.07189998 0.08507626 0.10827633 0.083161004

bias f4 [28]
00000000: f74b 223d 45b0 71be 031e 1abd b0b5 1c3d
00000010: ad1e dbbd b624 4abe 308f ac3d c8a7 e5bc
00000020: a48a 923d 14ec 5b3d 147d 61bd 706f 223d
00000030: d6f1 21be ba6f b3bd f22c ee3d 14a6 44be
00000040: 0601 533d bf06 debc 09ea 00be 7164 a4bc
00000050: 48a2 e0bc ef06 cabd 1117 7a3c 3a54 02be
00000060: 4180 163d 4246 223d 6a96 06bd 01b9 1c3c
0.039623227 -0.23602398 -0.037626278 0.03825921 -0.1069921 -0.19740567 0.08425748 -0.028034106
0.0715535 0.05369194 -0.055050924 0.039657056 -0.1581491 -0.087615445 0.116296664 -0.19203979
0.051514648 -0.027102826 -0.12589277 -0.020067425 -0.027421132 -0.09864604 0.0152642885 -0.12727442
0.036743406 0.039617784 -0.03285829 0.009565593

running_mean f4 [28]
00000000: fedd 6540 4434 40c2 62d7 01c0 db31 0dbf
00000010: 23d8 f141 c70b 7642 bdd5 51c0 f51f 26c0
00000020: 802e d040 192b e63d 639b 73c2 425d 1140
00000030: d256 81bf 6ee1 76bf 3564 16bf f7b1 08c2
00000040: 1d0a 1fbd 2e8a 37bd 1b6f 50bd 6150 4cbd
00000050: 770f 2fbd a459 7ebc c393 53bc c4aa 19bd
00000060: 7502 07bc e719 45bd 3644 a03a dffb 98bc
3.5916743 -48.05104 -2.028771 -0.551542 30.230536 61.5115 -3.2786705 -2.5957005
6.5056763 0.11238689 -60.901745 2.271317 -1.010462 -0.9643773 -0.58746654 -34.173794
-0.038828004 -0.044809513 -0.05088721 -0.049881343 -0.042739358 -0.015524302 -0.012913647 -0.03751637
-0.008240332 -0.048120406 0.001222736 -0.018674789

running_var f4 [28]
00000000: e87a 2444 08ee 5644 14f3 9644 1f9f 0645
00000010: 0241 c543 b975 8644 5c9a 0844 a376 ce44
00000020: 15ba 1a45 768f 8b44 9dda 8f44 cd3f 0545
00000030: 78fa 2f44 00d8 cd44 8f2c 4143 fce0 6244
00000040: 28fc 333c 810f 5d3c 329a 333c 10e8 373c
00000050: 3b5f 4e3c 688f bd3b 3b8a 3d3c 50a1 153c
00000060: ad40 193c b8de 3a3c a705 363c 84b0 963b
657.9204 859.71924 1207.5962 2153.945 394.50787 1075.6788 546.41187 1651.7074
2475.6301 1116.4832 1150.8317 2131.9875 703.9136 1646.75 193.17406 907.5154
0.010985412 0.013492466 0.010962056 0.011224762 0.012595947 0.0057849176 0.011568601 0.009132698
0.009353799 0.011405639 0.011109746 0.004598679

weight f4 [12, 28, 3, 3]
00000000: 4e99 2d3d c94b 0f3d 047d 9b3d 2145 3fbd
00000010: 87e8 f5bc d315 5cbd 438f cebd 2658 58bd
00000020: e516 83bd e731 303d a8f8 95bb 00f2 06bb
00000030: f586 3dbc 37a3 32bd d0ec 1cbd 85d0 c1bc
00000040: 0ea2 9abc e988 bb3c be2f 993d 21f2 f93c
00000050: a6a9 a03c 251a 273d df86 c83b 43b0 3f3d
00000060: f888 86bd 6561 86bc a8f5 babb 50fb dfbc
00000070: e973 56bc fce6 1abd 9c16 6f3d 1927 af3c
00000080: 493a 463d 7169 893d 4b30 8abc 81fe 333d
00000090: 4d17 013d 2a6f f6bc 492f 463b 074b 33bb
000000a0: c574 72bc d071 bbbc c9bf 3a3c 075a b43c
000000b0: 5bd5 d1bd 0490 1b3d 7141 523d 3192 d63b
000000c0: ad32 873c aee7 313c 9dd1 b7bc d2dc 423c
000000d0: e890 3039 00c0 a8bc ea87 df3c fa04 de3c
000000e0: c717 0d3d f39c dabd 09a6 b9bd 07e0 84bd
000000f0: 16a6 95bb 9093 e63b c221 293d fae0 573d
00000100: 5621 da3c c554 28bb d3c3 1c3d 1dc7 c5bc
00000110: e018 b6bd 7b04 aebd 62e1 cbbd affb b2bd
00000120: 641f 103e 8abe 9d3d 616f a73d 6a85 003c
00000130: 7904 81bc 3452 953c f71c 74be 6c32 36be
00000140: 3e2f 9cbd 58f3 4c3a f3cc cfbc 0f8a 44bc
00000150: 7242 51bd b801 ca3c f4bd a53c 9424 733c
00000160: 5ec0 863c 7657 a43c e5ed f03c 9fe8 d03b
00000170: 3364 933c 863b 0b3c 75e0 87bc f179 a03b
00000180: 534e 773c e89c f2bc e747 16bd 6cff e8bd
00000190: d2bd acbd 978d 88bd 6706 783c 3292 0bbc
000001a0: 10f5 fdbc 176f c33d fd6c 303d 5db2 273d
000001b0: 0ef0 bcbd 5175 86bc 2907 3cbd 80f0 69bc
000001c0: 7bf4 7fbd db0c 82bd f45b c73c cffd b7bb
000001d0: f915 2b3c dcf0 8dbc 1a2d 92bb 9900 c6bc
000001e0: 8777 273a 521a a5bc bb65 1cbd 3c1f 97bd
000001f0: 6543 8ebd 45bb 1ebd 97cd 8b3d 5348 e83c
00000200: ffec e13c 6ae1 9f3c a7a2 0ebd 81d3 26bd
00000210: 5d50 67bd 9278 cfbc 21e1 17bc e9d4 b9bc
00000220: b9ef 68bc 2c4b 23bd 8625 4e3b c247 38bb
00000230: 41b3 d8bc 7e25 ce3b bbfb 103c 46a3 043c
00000240: 72bd 1e3d 2a96 ce3b a876 b43c fca2 72bc
00000250: 8dfb 523c 2a78 a13b d51c 12bb 0eb1 be3c
00000260: f4df 583d 51d8 fd3c 710c 0a3d 2cdd 0b3d
00000270: df65 e7bc d8ed 43be df69 70bd 0139 07b9
00000280: 05a8 3bbd ce79 a1bc 0fb6 6abc 9cab 96bc
00000290: f0d7 77bd 5ac4 d53d 341f 6f3d 7b60 ffbc
000002a0: 2ef0 4d3b 48cf 65bd d8a6 e0bd 78c9 15bc
000002b0: e796 c8bc 2969 13bb 3117 753c 08f1 653c
000002c0: fe3f 94bc 45d9 19bc 9a64 eb3c 5f51 163c
000002d0: 2e01 c5ba 9093 09bd b792 4cbd 815d 003d
000002e0: 6fed b3b9 a196 d9bc 8f06 0b3d 188d 3a3d
000002f0: 988b 073d 924a 553d 8926 0b3b 06b9 6ebc
00000300: ae81 34bc 4281 4bbb d4b2 65bd 9787 27bd
00000310: d648 043c acfd 6bbb b1d9 603d 3dbd 3d3b
00000320: ff8c 0f3d 7c00 40bd 11ea 5bbe 96ff a1bc
00000330: 84df aab9 1758 cfbb a790 663c bd06 42bd
00000340: ae2a 48bd 91da 31bd 7706 1bbd 290c 4bbc
00000350: c00e c6bb 884c ee3c 7f42 a63c 4540 643c
00000360: 0699 6ebb 4c20 cabb 6085 afbb e802 233d
00000370: 071e 523d 1621 c63c 1bab 7b3c 6de4 b83c
00000380: 9de2 7ebb 775c f7bc eb91 943c 1ed1 513d
00000390: 74b1 03bb d233 2b3d 0c0f 9f3d e63e 333c
000003a0: e1e5 463d da65 7d3d 7701 033d 116c a4bb
000003b0: 89ed 3abc c986 673b 17b4 283d fc22 6fbc
000003c0: b0db 413c 6bfc a63c faa6 023d 19b8 a5bc
000003d0: dc5e 4ebc 9a4f d1bc 6c02 e2bc 2eaa 8cbb
000003e0: 1999 a5bc 1033 9fbc d74a b4bc 01b5 a83b
000003f0: 8c0e 11bd 24e2 07bd 8185 213d 4156 943d
0.04238253 0.034984384 0.07592204 -0.046696786 -0.030018104 -0.05373175 -0.10085919 -0.05281844
-0.06400851 0.04301634 -0.0045767613 -0.002059102 -0.011567821 -0.043612685 -0.03831178 -0.023659
-0.018876102 0.022892432 0.07479809 0.030510964 0.019612145 0.040796418 0.0061195935 0.046798956
-0.065690935 -0.016403863 -0.005705554 -0.027341515 -0.013089159 -0.03781794 0.05837117 0.021380948
0.04839543 0.067095645 -0.016868731 0.043943886 0.031516362 -0.030082304 0.0030240586 -0.0027357952
-0.014798348 -0.022881418 0.011398264 0.022015585 -0.102457725 0.03797914 0.05133194 0.006548189
0.016503656 0.010858459 -0.022438819 0.011893468 0.0001683865 -0.020599365 0.027286489 0.027101982
0.034446504 -0.10674467 -0.09064872 -0.06488042 -0.004566918 0.007036634 0.04129196 0.05270479
0.026627224 -0.0025685292 0.03827269 -0.024142796 -0.08891463 -0.08496948 -0.09955098 -0.08739411
0.14074475 0.07702358 0.08175541 0.007844308 -0.015749203 0.018227674 -0.23839174 -0.17792672
-0.07626198 0.00078182435 -0.025366282 -0.011995806 -0.051088758 0.024659023 0.020232178 0.014840264
0.01644915 0.020061236 0.029410312 0.006375387 0.017992115 0.008498078 -0.016586522 0.004897349
0.015094358 -0.029615834 -0.036689665 -0.11376843 -0.08434643 -0.06667631 0.015138245 -0.008518742
-0.031000644 0.09542673 0.04307269 0.040941585 -0.09225474 -0.016413363 -0.045905266 -0.014278531
-0.062489014 -0.06350108 0.024335839 -0.005614973 0.01044225 -0.017326765 -0.004460943 -0.024170207
0.00063883554 -0.020154152 -0.038182955 -0.07379004 -0.06946448 -0.038752813 0.068263225 0.0283548
0.027578829 0.019516665 -0.034823086 -0.04072905 -0.056473125 -0.025326047 -0.0092699835 -0.022684531
-0.014217311 -0.03986661 0.0031455471 -0.0028118943 -0.026452662 0.0062910905 0.00884908 0.008095568
0.038754888 0.006304522 0.022029236 -0.014809366 0.012877357 0.0049276548 -0.0022295017 0.023277786
0.052947953 0.030986937 0.03370327 0.034146473 -0.028246818 -0.19133699 -0.058694717 -0.00012895839
-0.045814533 -0.019711401 -0.014325633 -0.018392377 -0.06050867 0.10437842 0.058379367 -0.031173935
0.0031423676 -0.056105882 -0.10969323 -0.009142272 -0.024486018 -0.00224931 0.014959143 0.014034517
-0.01809692 -0.00939018 0.028734494 0.009174674 -0.0015030259 -0.033587992 -0.049944606 0.031339172
-0.00034318442 -0.026561083 0.0339418 0.045544714 0.03309211 0.05207307 0.0021232686 -0.01457048
-0.011017246 -0.0031052385 -0.056078747 -0.040900793 0.008074006 -0.0036009355 0.054895107 0.0028951906
0.035046574 -0.046875462 -0.21476008 -0.019775193 -0.0003259146 -0.00632764 0.014072574 -0.047369707
-0.048868828 -0.04342133 -0.037847962 -0.012393036 -0.006044239 0.029089227 0.02029538 0.013931339
-0.0036407127 -0.006168401 -0.0053564757 0.039797693 0.051298168 0.024185698 0.015360619 0.02256986
-0.0038892396 -0.030195458 0.018135985 0.05122482 -0.0020094784 0.041797467 0.07766542 0.010940289
0.048559073 0.06186471 0.03198382 -0.0050177653 -0.011409172 0.003532814 0.041187372 -0.014595743
0.011832163 0.020384034 0.031897523 -0.020229386 -0.012595858 -0.025550652 -0.027589045 -0.004292748
-0.020214604 -0.019433528 -0.022008343 0.0051485305 -0.035414264 -0.03317465 0.03943396 0.07243014

weight f4 [40]
00000000: aa74 5d3e c92a 103e da0a 883e 5cd5 813e
00000010: 7a93 483e 4383 1d3e 5ed5 5d3e c981 643e
00000020: f920 2f3e 9211 1a3e 4d57 783e ffb3 303e
00000030: 88b3 843e 3043 093e 9144 153e d283 443e
00000040: 2b8e e63d af36 483e b2cc 513d 353e 853e
00000050: 21f8 dd3d 4fab 263e 9847 0d3e d0fd c63d
00000060: fbe5 393e 686d 8e3d 67e9 923d 3c52 b03d
00000070: 6b09 213e c1d8 f13d 2556 313e 46be 053e
00000080: fea3 403e 3484 0b3e e760 263e 6b6a 4a3e
00000090: c074 683e dac6 613e 94d1 ec3d d1f8 483e
0.21626535 0.14078821 0.2657078 0.25358093 0.19587508 0.15382104 0.21663424 0.22315134
0.17102422 0.15045765 0.24252053 0.17256163 0.2591822 0.13404536 0.14576937 0.1919091
0.11257585 0.1955211 0.051220603 0.26024023 0.108383425 0.16276287 0.13796842 0.0971638
0.18154137 0.06954461 0.07173424 0.08609435 0.15726249 0.11808921 0.17318018 0.13060865
0.18812558 0.1362465 0.16247903 0.19767158 0.22700787 0.22048512 0.11563411 0.19626166

bias f4 [40]
00000000: f311 143d 1e2b 95bd 5c0c 7abd 609d 21bd
00000010: dd66 28be 0545 c9bd 9cd9 c13d b2be 9b3c
00000020: 146d 603d c283 1b3d c9ac 4ebe e7e9 433d
00000030: df71 043e 047c 303d d5c2 f13d 33d7 cabd
00000040: f323 873c 7995 0abe d8a5 833d 1ca8 23be
00000050: 9dff 74b9 aca9 1bbe 813c 273b 6bcb 5b3c
00000060: 5401 15be 844c 693d 5a30 a23d bfa0 ba3c
00000070: daee 5fbd 4b16 783c d6c3 1bbe 8b1f 1cbd
00000080: 9c4f efbd 443f 02bd acf3 d4bd a80a d0bd
00000090: a807 f7bd f4c6 18be e9c5 1bbc bfdb 21be
0.03614993 -0.072836146 -0.061046943 -0.039456725 -0.16445489 -0.098276176 0.09465334 0.019011829
0.054791525 0.03796745 -0.201831 0.04783049 0.12934063 0.04308702 0.118047394 -0.09904327
0.016496634 -0.13533582 0.064281166 -0.15982097 -0.00023364877 -0.15201443 0.002551824 0.013415198
-0.14551288 0.056957737 0.079193786 0.022781728 -0.054671146 0.015142034 -0.15211424 -0.03811602
-0.11685106 -0.031798616 -0.10398039 -0.101582825 -0.12062007 -0.14919645 -0.009507635 -0.15806483

running_mean f4 [40]
00000000: fedd 6540 4434 40c2 62d7 01c0 db31 0dbf
00000010: 23d8 f141 c70b 7642 bdd5 51c0 f51f 26c0
00000020: 802e d040 192b e63d 639b 73c2 425d 1140
00000030: d256 81bf 6ee1 76bf 3564 16bf f7b1 08c2
00000040: 1d0a 1fbd 2e8a 37bd 1b6f 50bd 6150 4cbd
00000050: 770f 2fbd a459 7ebc c393 53bc c4aa 19bd
00000060: 7502 07bc e719 45bd 3644 a03a dffb 98bc
00000070: 668a 83bd c09b 54bc 6fea 15bd 81c0 60bd
00000080: 5d5f 5fbd 50b0 c9bc b420 b3bc 9617 36bd
00000090: 8b2d 5cbd b986 3cbd 528a 0fbd 54ad 66bd
3.5916743 -48.05104 -2.028771 -0.551542 30.230536 61.5115 -3.2786705 -2.5957005
6.5056763 0.11238689 -60.901745 2.271317 -1.010462 -0.9643773 -0.58746654 -34.173794
-0.038828004 -0.044809513 -0.05088721 -0.049881343 -0.042739358 -0.015524302 -0.012913647 -0.03751637
-0.008240332 -0.048120406 0.001222736 -0.018674789 -0.06422882 -0.012976587 -0.036600526 -0.054871086
-0.054534305 -0.024620205 -0.02186618 -0.044456087 -0.05375437 -0.04602692 -0.035044022 -0.056317642

running_var f4 [40]
00000000: e87a 2444 08ee 5644 14f3 9644 1f9f 0645
00000010: 0241 c543 b975 8644 5c9a 0844 a376 ce44
00000020: 15ba 1a45 768f 8b44 9dda 8f44 cd3f 0545
00000030: 78fa 2f44 00d8 cd44 8f2c 4143 fce0 6244
00000040: 28fc 333c 810f 5d3c 329a 333c 10e8 373c
00000050: 3b5f 4e3c 688f bd3b 3b8a 3d3c 50a1 153c
00000060: ad40 193c b8de 3a3c a705 363c 84b0 963b
00000070: 67ed 893c 1f84 fd3b f2ba 073c eceb 233c
00000080: 06df 1e3c a7bb ea3b a16c e03b 66b6 fc3b
00000090: 4d26 323c e279 7e3c 28f2 f13b 8418 083c
657.9204 859.71924 1207.5962 2153.945 394.50787 1075.6788 546.41187 1651.7074
2475.6301 1116.4832 1150.8317 2131.9875 703.9136 1646.75 193.17406 907.5154
0.010985412 0.013492466 0.010962056 0.011224762 0.012595947 0.0057849176 0.011568601 0.009132698
0.009353799 0.011405639 0.011109746 0.004598679 0.016836835 0.0077366973 0.008284317 0.010004979
0.009696728 0.007163483 0.006848887 0.0077121733 0.010873389 0.015531989 0.0073836036 0.008306626

weight f4 [12, 40, 3, 3]
00000000: 2415 f4bc 1772 c6bd 1fb0 c9bd 167b ed3c
00000010: 2cef 92bc 8c2c 05be a5fe 193d 9cb9 173d
00000020: e45b 013c ba7a 08bd 96b5 adbc 4f5f 56bc
00000030: b2bf 1dbc c969 08bc 48df 75bc cc0f 0fbd
00000040: 266d e1bc 3139 b9bc edc9 c43a 6874 513c
00000050: 8a5a 7a3c ff18 6bbd 57da 20bd ead3 c8bc
00000060: af95 aabd a2b2 85bd 766e c4bd 5187 463d
00000070: 1599 0f3a 4943 0b3c ac24 79bc f7b8 81bd
00000080: 8739 adbd d8e2 d2bc e640 23bd 82a6 f4bd
00000090: 9b82 e739 efee 35bc 6829 81bd 0c5f 43bb
000000a0: 4875 07bd a9ce b4bc feb4 b5bb 9b9c 103b
000000b0: 454f d43c 31b0 fb3c 1694 f23c e705 7e3d
000000c0: 03ef 603c 0d09 eaba ef10 8d3b 0005 3dbb
000000d0: 166d d1bb 0c3d 7ebb 6f71 9c3d 34ba 123d
000000e0: 1261 ca3c 21f3 dcbc 8d55 603c ee3b 9e3c
000000f0: ffd1 91bc 4fd7 94bc 3b09 2a3b 039d 23bd
00000100: cabd a2bd fe07 1ebe 9b7c a3bd bceb 1c3b
00000110: 0dcb 0dbd d35a 3e3c f499 853d 5cab 113d
00000120: 6686 bfbd 67fb 0ebe 10e3 bcbd 8f76 82bc
00000130: 7409 3d3c c300 5ebc d0c6 303c 9da3 993c
00000140: 9a4d 6a3c c3fe fabb 5235 a13c 0e24 0a3d
00000150: 8780 8abd 7f27 73ba 9512 843d 0e09 2cbd
00000160: 0584 403d 1942 b53d 286b b7bd 4d61 55bd
00000170: daa7 973c c54d 8ebd fc4a a1bd a469 50bd
00000180: 7037 fabc 9a00 b4bc 289f 01bd e0e9 043c
00000190: fcdc 0abb 90ad ef3c d2cd cf3c 67be b03c
000001a0: 6326 34bc 61eb b4bd 80b1 b6bc 8e9b a3bc
000001b0: eaad fe3c 1c33 80bc b109 513b ff23 1ebd
000001c0: ac72 08bc 916d 333c 3ca8 a3bc 071a 11bb
000001d0: 3b54 6c3b 40fe 4a3d 55b6 92b6 d834 db3a
000001e0: 5b94 95bb fc1e ee3c 425e a53c 19e4 3abd
000001f0: 6185 65bb 8e9c 81bc 3148 9abc 80c3 c23c
00000200: 8197 a13c 64dc 31bb 76ed 193c 5615 b4bc
00000210: 4be2 2dba 2d19 723d a613 6a3d 0831 97bc
00000220: 8399 123b 3e22 043d d691 a5bb c701 db3b
00000230: 89d8 9d3c 8b22 5bbd 642c a3bc 9ea0 063d
00000240: 6534 933c 0b76 9ebc 2c99 ea3b dd7d 113d
00000250: 538a d73b 73c2 8f3c 463e 2f3d 29b6 033c
00000260: df84 d03b c8f9 c03c 6556 023d 0a90 033d
00000270: f9dd 1abd 59af 823c 666d 263d 3622 23bd
00000280: 8888 9cbc 23b3 a9bc 029e 0c3c d0b1 e83c
00000290: eb90 173d ca18 2fbb 50b2 c9bc 93f5 9b3c
000002a0: cad3 873c 839f 20bc c415 60bc 7b7b 67bc
000002b0: a36e 80bb ebcb 173d 126b 38bc 70ce 9bbc
000002c0: 1ed2 d7bc 46fe 033d dcb0 ffbb 2069 91bc
000002d0: 1316 ccbb fede a43c 528f 873d 2aea dd3b
000002e0: de40 05bd adc1 c23c 1bee 4e3c 52b6 39bc
000002f0: 511e faba 100e 93bd 7721 67bc 1a75 213b
00000300: 300e ebbb 3527 f5bb 2dfe b6bb 7865 e4ba
00000310: c757 3bbc 080b bbbc 4bec 36bb f21c 073c
00000320: 4da5 04bb f0ab 6bbd e120 1cbd 6744 91bd
00000330: f8bb 27bd 1b4f f1bc 3542 5dbd ea43 00bd
00000340: 79a6 c1bc 1c19 b7bb eeb7 e03b 79cf bcbc
00000350: d8d2 333c 604d 773c 9092 a83c 758a 6a3c
00000360: a54f cbba b41b 723c 3274 3cbc 9fb1 55bd
00000370: 058c 0bbd 5eb7 3abd 8bf4 ddbb 4377 0ebd
00000380: e0c3 01bd c630 4ebc 85d6 cf3b ada4 65bc
00000390: 1339 563d f640 2a3d 569b 933c 0a14 813d
000003a0: 7fde 293d 3bc3 003d 5cd4 393c 00bc 1a3d
000003b0: 8594 7d3d f4d2 b33b 5c03 fc3c a7ed fe3c
000003c0: 83c5 013d 9d19 f03b 5cde 26bb e1a0 073d
000003d0: 2f57 3f3d cd70 f33c ff95 ea3c b30e e53c
000003e0: fa92 213d f671 8d3c 5fb5 9f3c 3309 093c
000003f0: 7c41 063d 5bb2 fa3c 285c 353d fbff e6bc
-0.029795237 -0.0968973 -0.098480456 0.028989356 -0.017936312 -0.13005275 0.037596364 0.037042245
0.007895444 -0.033320166 -0.021204751 -0.013084247 -0.009628223 -0.008326002 -0.015006848 -0.034927174
-0.027517866 -0.022610279 0.0015013792 0.012784101 0.015280375 -0.057396885 -0.039270725 -0.024515111
-0.08329331 -0.06528212 -0.09591381 0.04846889 0.0005477828 0.008499929 -0.015206497 -0.06334107
-0.08458238 -0.025742933 -0.039856814 -0.11945821 0.00044157062 -0.0111043295 -0.06306726 -0.002981129
-0.033070832 -0.0220712 -0.0055452576 0.0022066 0.025916705 0.030723663 0.029611629 0.062017348
0.01372886 -0.001785548 0.004304997 -0.0028842092 -0.006391178 -0.003879371 0.07638823 0.03582211
0.02470449 -0.026971402 0.013692272 0.019315686 -0.01780033 -0.018169073 0.0025945443 -0.03994466
-0.07946356 -0.15432736 -0.07982751 0.002394422 -0.034617472 0.011618334 0.06523505 0.03556381
-0.09351806 -0.1396309 -0.09222996 -0.015925674 0.011537898 -0.013549986 0.010789588 0.018754775
0.014300728 -0.0076597645 0.019678745 0.03372579 -0.06762796 -0.00092756 0.06448857 -0.042000823
0.047000904 0.08850498 -0.08955985 -0.052094746 0.018512655 -0.06948427 -0.0787563 -0.050881997
-0.030544013 -0.021972943 -0.031645924 0.008112401 -0.0021188846 0.029257566 0.025366697 0.021575166
-0.01099548 -0.088339575 -0.022301435 -0.019971635 0.031088788 -0.01564937 0.0031896646 -0.038608547
-0.008328121 0.010951416 -0.019977681 -0.0022140758 0.0036060947 0.049558878 -4.3723653e-06 0.0016724123
-0.0045648045 0.029067509 0.020186547 -0.045627687 -0.0035022127 -0.015821721 -0.018833252 0.023774862
0.019725563 -0.002713942 0.009394994 -0.02198283 -0.00066331465 0.05910604 0.057147644 -0.018455997
0.0022369332 0.03225922 -0.0050527854 0.0066835615 0.019268291 -0.05349974 -0.019918628 0.03286802
0.01796932 -0.019343397 0.007159373 0.035520423 0.006577769 0.017548775 0.042783998 0.008039036
0.0063634957 0.023556605 0.031820673 0.03211979 -0.037809346 0.015952753 0.040631674 -0.039827548
-0.019108072 -0.020715302 0.008582594 0.0284051 0.03700344 -0.0026717656 -0.024621159 0.019037997
0.016580481 -0.009803656 -0.013677064 -0.014128561 -0.003919439 0.037059706 -0.011255996 -0.019019336
-0.026345309 0.032224916 -0.0078030657 -0.017750323 -0.0062282174 0.020125862 0.06619133 0.0067722993
-0.032532565 0.023773992 0.012630011 -0.011334972 -0.0019082521 -0.071804166 -0.0141071 0.0024636448
-0.007173322 -0.0074814805 -0.0055844993 -0.001742526 -0.011434502 -0.022832409 -0.0027911838 0.008246647
-0.0020240129 -0.05753702 -0.038117293 -0.07093125 -0.040950745 -0.029456666 -0.054018218 -0.031314768
-0.02363895 -0.00558771 0.0068578636 -0.02304815 0.010975562 0.015094131 0.020577699 0.014315237
-0.0015511407 0.014777113 -0.0115023125 -0.052171346 -0.03406908 -0.04558503 -0.0067735366 -0.034781706
-0.03168094 -0.012584871 0.0063427114 -0.014016313 0.052300524 0.041565858 0.018018406 0.0630265
0.041471954 0.031436186 0.011342134 0.037776947 0.061909217 0.005487794 0.03076332 0.03111918
0.031682502 0.007327272 -0.0025462126 0.03311241 0.046714004 0.029716874 0.028635977 0.02796111
0.03944681 0.017266255 0.019495664 0.00836401 0.032777295 0.030602625 0.04427734 -0.028198233

weight f4 [52]
00000000: 4bad 243e db80 423e 16e2 563e 45a3 443e
00000010: 91bc 423e f810 103e 5b47 913e 95eb 5a3e
00000020: 7050 363e 958f 343e d77a 4e3e dcc6 0e3e
00000030: adfc ad3e 453b 553e c656 263e 8aa3 503e
00000040: e4e8 283d 674d 2f3e 8c6a 1f3e 92d6 343e
00000050: 3d35 893d 5808 ef3d 599e 553e a850 293e
00000060: a196 203e 75ff 453e a239 273e fdcd de3d
00000070: de07 3d3e 4076 303e 463f dc3d de1b 283e
00000080: 4b6a 1d3e 3e94 3d3e e23b dc3d 87fa 3f3e
00000090: aa02 3b3e 535e 1b3e a174 463e 6920 1c3e
000000a0: 160f 023e 5b62 1f3e 5b3c e83d dcde 463e
000000b0: f89e 6b3e 76d6 533e f08b 3d3e 670b 593e
000000c0: 944d 9e3d b1dc 2d3e 0d2d 413e 054f 743e
0.16081731 0.18994467 0.20984682 0.19202907 0.19017245 0.14068973 0.28374752 0.2137893
0.17804122 0.17632897 0.20164047 0.13943046 0.3398184 0.20823391 0.16244039 0.20374885
0.041237727 0.1711937 0.15567988 0.17659977 0.066996075 0.11671513 0.20861186 0.16534674
0.1568246 0.1933573 0.16330579 0.10879133 0.18460032 0.17232609 0.10754256 0.1641688
0.15372579 0.18513581 0.10753609 0.18747912 0.18262735 0.151727 0.19380428 0.15246738
0.12701067 0.15564863 0.11339637 0.19420952 0.2300986 0.20687279 0.18510413 0.21195756
0.077296406 0.16978718 0.18864842 0.23858269

bias f4 [52]
00000000: 0e03 d13b 0faa 89bd c2a0 68bc c13b d23b
00000010: b78f fbbd 2e14 b8bd 40ac 9dbd 0289 c2bc
00000020: 5212 963d a4dd a63b d225 0fbe 48d0 bf3c
00000030: e989 e0bd e890 bd3c 9434 cdbc e087 edbd
00000040: 0779 b33d 8dba 2ebd 564e 64bd 5e48 8fbd
00000050: a7ab 483d 07b2 55bd d7c9 e5bd aac7 bbbd
00000060: 4b7f 27bd 18d1 0cbe 3013 abbd 72e9 4fbb
00000070: 31bd 87bd afd8 c1bd 1470 0ebc fcd5 98bd
00000080: 5468 babd bfb0 18be 9fcc ea3b 6fb8 c1bd
00000090: effa a5bd dcc0 02bd a1d8 04be ee38 cfbd
000000a0: 9c2d 34bd 4697 5fbd 705b 8d3a f301 edbd
000000b0: 1b93 09be 2554 00be 5bda c7bd d923 d3bd
000000c0: c980 053d 2e1e fdbd d18a 0fbe 6829 e8bd
0.006378538 -0.06721889 -0.014198484 0.0064158146 -0.12283271 -0.08988224 -0.0769887 -0.023746971
0.07327713 0.0050923396 -0.13979271 0.023414746 -0.10963804 0.023140386 -0.025049485 -0.11598182
0.087633185 -0.042658377 -0.05573877 -0.06996225 0.048991825 -0.052171733 -0.112201385 -0.09168942
-0.04089288 -0.13751638 -0.08353269 -0.0031724838 -0.06627882 -0.09465157 -0.008693714 -0.07462689
-0.0910193 -0.14911173 0.007165506 -0.09459006 -0.081045024 -0.031922206 -0.12973262 -0.1011828
-0.04398881 -0.054587625 0.0010784697 -0.115726374 -0.13435023 -0.12532099 -0.09758445 -0.10309572
0.032593522 -0.12359272 -0.14017798 -0.113360226

running_mean f4 [52]
00000000: fedd 6540 4434 40c2 62d7 01c0 db31 0dbf
00000010: 23d8 f141 c70b 7642 bdd5 51c0 f51f 26c0
00000020: 802e d040 192b e63d 639b 73c2 425d 1140
00000030: d256 81bf 6ee1 76bf 3564 16bf f7b1 08c2
00000040: 1d0a 1fbd 2e8a 37bd 1b6f 50bd 6150 4cbd
00000050: 770f 2fbd a459 7ebc c393 53bc c4aa 19bd
00000060: 7502 07bc e719 45bd 3644 a03a dffb 98bc
00000070: 668a 83bd c09b 54bc 6fea 15bd 81c0 60bd
00000080: 5d5f 5fbd 50b0 c9bc b420 b3bc 9617 36bd
00000090: 8b2d 5cbd b986 3cbd 528a 0fbd 54ad 66bd
000000a0: 3a30 8dbd 4f37 32bd 606e 1abd e0fd 87bd
000000b0: ffea 56bd 460e 77bd f4cb 6bbd e6ac 86bd
000000c0: 5c2e 1abd 7521 0fbd 4440 00bd ef8f 66bd
3.5916743 -48.05104 -2.028771 -0.551542 30.230536 61.5115 -3.2786705 -2.5957005
6.5056763 0.11238689 -60.901745 2.271317 -1.010462 -0.9643773 -0.58746654 -34.173794
-0.038828004 -0.044809513 -0.05088721 -0.049881343 -0.042739358 -0.015524302 -0.012913647 -0.03751637
-0.008240332 -0.048120406 0.001222736 -0.018674789 -0.06422882 -0.012976587 -0.036600526 -0.054871086
-0.054534305 -0.024620205 -0.02186618 -0.044456087 -0.05375437 -0.04602692 -0.035044022 -0.056317642
-0.06893964 -0.043509778 -0.037702918 -0.0664022 -0.052470203 -0.060316347 -0.05756755 -0.065759465
-0.037641868 -0.034944016 -0.03131129 -0.05628961

running_var f4 [52]
00000000: e87a 2444 08ee 5644 14f3 9644 1f9f 0645
00000010: 0241 c543 b975 8644 5c9a 0844 a376 ce44
00000020: 15ba 1a45 768f 8b44 9dda 8f44 cd3f 0545
00000030: 78fa 2f44 00d8 cd44 8f2c 4143 fce0 6244
00000040: 28fc 333c 810f 5d3c 329a 333c 10e8 373c
00000050: 3b5f 4e3c 688f bd3b 3b8a 3d3c 50a1 153c
00000060: ad40 193c b8de 3a3c a705 363c 84b0 963b
00000070: 67ed 893c 1f84 fd3b f2ba 073c eceb 233c
00000080: 06df 1e3c a7bb ea3b a16c e03b 66b6 fc3b
00000090: 4d26 323c e279 7e3c 28f2 f13b 8418 083c
000000a0: b345 6b3c b954 083c 09ed 433c 2dfd 2b3c
000000b0: 52e2 153c e596 3e3c be93 183c 5083 663c
000000c0: 282c 203c cd60 233c 5f84 f73b dc9c 803c
657.9204 859.71924 1207.5962 2153.945 394.50787 1075.6788 546.41187 1651.7074
2475.6301 1116.4832 1150.8317 2131.9875 703.9136 1646.75 193.17406 907.5154
0.010985412 0.013492466 0.010962056 0.011224762 0.012595947 0.0057849176 0.011568601 0.009132698
0.009353799 0.011405639 0.011109746 0.004598679 0.016836835 0.0077366973 0.008284317 0.010004979
0.009696728 0.007163483 0.006848887 0.0077121733 0.010873389 0.015531989 0.0073836036 0.008306626
0.014359879 0.008320981 0.011958369 0.0104973735 0.009148197 0.011632656 0.009312568 0.014069393
0.009776153 0.00997181 0.0075536217 0.015699796

weight f4 [12, 52, 3, 3]
00000000: e5c5 2fbd b6d0 313d ce5b 8a3c e14e 57bd
00000010: 2930 093d 9feb 953c c18b cdbd dade 1fbd
00000020: 4a75 a3bd 08b1 913d 596a 973c a1df 9db9
00000030: 2ab8 a53c c444 cdbc 2451 fcbc c619 9bbc
00000040: 032e 5bbd a670 ecbd 8ddb b83c ea43 e33c
00000050: f9ae 86bb 9ff7 273d ddb9 983c b7d0 6ebc
00000060: 30c4 95bc 541b 3dbc 416c 96ba 2016 043d
00000070: 66ce b13c 05e9 ee3c b209 4c3d 89f5 163c
00000080: 56ea a63c 47d2 ff3c 92a1 8bbb 8a78 0bbc
00000090: cb62 0a3d bcc3 f93c da1d a63d 7a83 a3bc
000000a0: 4f11 f2bc d909 113c 3237 843c 7cbb 01bd
000000b0: e397 ee3b 8abf 9f3c 1762 963c 83e2 0c3d
000000c0: 2286 123c 15a2 94bb d670 393c cee3 17bd
000000d0: 0493 01bd 2693 81bc 8f6d 233d 2d83 95bc
000000e0: ba9c 983c ce4f c7ba 06bd 3fbc 1299 36bd
000000f0: 5264 38be 138b 8abd d898 a7bd 8c6d 733d
00000100: 7647 443c 4860 c73c dd83 423d 0ce6 45bd
00000110: 7cfe cabc c733 a5bd eda0 68bd b46b 5dbd
00000120: 9bba 06be a227 2fbe 06b4 51be 75b6 903d
00000130: f7ee 3b3d 6080 723c 3137 9b3c a827 af3c
00000140: 5897 57bc 7a7f 3a3d 5ef1 7b3d 233e 313d
00000150: 8809 78bd 220c f2bc b2e5 bd3c 1af5 8ebb
00000160: 9e80 3d3c c85c 913b 1a81 32bc 4d67 bcbc
00000170: bdcb 793c ca08 0a3d 2c5e 7b3c 9aec 3d3c
00000180: 381f 85bb 721c 8cbc 6856 b3bc 5543 a53d
00000190: 4605 823d 8e1b 993d f863 afbc 6983 313c
000001a0: cd95 bf3c b3fd debd adfc aebd 87a6 89bd
000001b0: 1da8 bcb8 70ae 71bc d1be 2dbd be41 b7bd
000001c0: 0dde b5bc 6b45 5cbc 04e2 09bd dd6f 88bd
000001d0: 5e35 37bd feb3 a13d bd4a 1a3d 282d 0d3c
000001e0: 0a92 5fbd 5845 6bbd 7a78 83bd 3aea 36ba
000001f0: 01cc a23b 5ef3 e2bb 35b5 fa3c 72e0 863d
00000200: 07bc 903d b676 8c3a 6742 3ebb b6e7 0d3d
00000210: 751e 9fbd 439c a6bd 2feb a4bd ab30 5d3c
00000220: 9133 1d3c 0165 e23c 2999 15bc d435 ef3b
00000230: f0b6 423d 1fd1 7abd 2444 52bd bb07 2eba
00000240: a8e7 5d3d aaac 263d 1b1d f53c fd2f 973c
00000250: 2989 b53c 710f 3d3d 7377 a23c 7f5f dc3c
00000260: f841 08bb 307a f23c ebab 153d c164 763d
00000270: c1a5 15bd 2639 87bd 5343 65bd ecfd 8a3d
00000280: 101c 923c 91c2 aa3c c33a 043b f8c2 1c3c
00000290: 0f4a 503c ec48 77bc ac33 58be d058 803c
000002a0: 5fcd 2a3d 8188 683c b116 893d 3509 113d
000002b0: 7bd3 e83c a8a1 1f3d 591e f9ba 7989 b93a
000002c0: e7c5 c5bb c99e debc e2ec bbbc 0cd6 3cbd
000002d0: 7c86 1b3c dd6c cc3c 7d48 ab3a 43e6 1bbd
000002e0: ab9f 29bd 38ae c83b 9666 bcbc 5080 293c
000002f0: a15a 063d 1c73 b5bb 6120 3cbc bd8e bcbb
00000300: a205 773b 9d4f f5bb 6a04 c1bc 71a1 8a3c
00000310: d7c9 823c 3f4e 2b3d fe52 b13b 1e38 a13c
00000320: e6a5 1c3d 4023 323a 947a b03c 0fe6 083d
00000330: 3bc2 af3c d594 66bc a438 163c c759 243d
00000340: e8fe 2c3c 5713 c93c e8bb 3ebd bca5 b7bc
00000350: 8a8f c9bc 07bb 35bc 67fe 93bb 9e6b 1fbc
00000360: 52c8 8fbb 1be1 c03c 7ee4 fe3c 669a f13c
00000370: 6782 7f3c dfd2 ea3c b298 a73c 59a6 b9bc
00000380: cc18 2b3c 943a 3bba 0b34 fd3c 337d e23b
00000390: d147 0dbc 0880 0f3d c789 3dbc 4316 113c
000003a0: 8740 993c 18ae ce3c 74fb d93c 21a6 583d
000003b0: 8813 85b9 b887 bbbb 63b9 193d 829d b9bb
000003c0: d0bc bbbc 376b 8bbc ee6c 28bd 55c7 81bb
000003d0: 303b f83c 7f52 d33c 8ba3 cfbb b1ca aabb
000003e0: 8790 963c f019 4ebd 6ff6 96bd 56dc 24bd
000003f0: eaa0 05bd 8838 6fbc 6731 a73c 4825 13bb
-0.042913336 0.043411933 0.016889479 -0.05256546 0.033493195 0.01830083 -0.100364216 -0.039030887
-0.079813555 0.07113844 0.018483328 -0.0003011199 0.020229418 -0.025057204 -0.03080041 -0.018933188
-0.053510677 -0.115449235 0.022565627 0.027742345 -0.004110214 0.041007634 0.018643314 -0.014576129
-0.018282026 -0.01154216 -0.0011476354 0.032247663 0.021704864 0.029163847 0.049813934 0.009213814
0.020375412 0.031228198 -0.004261204 -0.0085126255 0.033785623 0.030488841 0.081111625 -0.019960154
-0.029549269 0.0088524455 0.0161396 -0.03167294 0.00728129 0.019500513 0.01835732 0.034395706
0.008943113 -0.0045359232 0.011318406 -0.037082486 -0.031634346 -0.015817236 0.039899405 -0.018251026
0.01862942 -0.0015206279 -0.011702782 -0.044579573 -0.18007019 -0.067648076 -0.081834495 0.059430644
0.011979928 0.024337903 0.047489036 -0.048315093 -0.02477955 -0.08066516 -0.056794096 -0.05405779
-0.13157122 -0.17104962 -0.2047883 0.07066051 0.04588219 0.014801115 0.018947216 0.021381214
-0.013158642 0.045531727 0.061509483 0.04327215 -0.060555965 -0.029546801 0.023180816 -0.0043627145
0.011566309 0.004436109 -0.010895038 -0.022998476 0.015246329 0.03369979 0.015342277 0.011592055
-0.0040625595 -0.017103408 -0.021891788 0.08069483 0.06348662 0.07475959 -0.021409974 0.010834553
0.02338686 -0.10888233 -0.08544288 -0.06721216 -8.995852e-05 -0.014751062 -0.042418305 -0.08948086
-0.022200609 -0.013444285 -0.03366281 -0.06661961 -0.04472863 0.07895659 0.037668932 0.008616723
-0.054582633 -0.05743918 -0.064194635 -0.00069776515 0.004968167 -0.0069259843 0.030603984 0.06585778
0.07067113 0.0010716531 -0.0029031278 0.034644805 -0.07769481 -0.08135273 -0.0805267 0.013500373
0.009594814 0.027636053 -0.0091307545 0.007300118 0.047537744 -0.06123459 -0.051334515 -0.0006638725
0.054176003 0.04069201 0.029921105 0.0184555 0.02216013 0.046157304 0.019832348 0.026901005
-0.0020791274 0.02959928 0.036540907 0.06015468 -0.03653503 -0.06602697 -0.05597241 0.06786713
0.017835647 0.02084473 0.0020176626 0.009567969 0.012712969 -0.0150930695 -0.21113461 0.01566735
0.041699763 0.014192701 0.06693781 0.03540917 0.028421154 0.038972527 -0.0019006237 0.001415535
-0.0060355547 -0.027175324 -0.022940103 -0.04610257 0.009492513 0.024954254 0.0013067868 -0.03806139
-0.041412037 0.006124284 -0.022998136 0.0103455335 0.032801274 -0.0055374037 -0.011482329 -0.0057543204
0.0037692566 -0.0074862973 -0.023561675 0.016922684 0.015965385 0.04182267 0.005411505 0.01968008
0.03824415 0.0006795414 0.021542825 0.033422526 0.021454921 -0.01407357 0.009168778 0.04012468
0.010558821 0.024545355 -0.04656592 -0.022417895 -0.024604578 -0.011091954 -0.004516411 -0.009730248
-0.0043878937 0.023544839 0.031114813 0.029492568 0.015595055 0.028665004 0.020458553 -0.022662329
0.010442924 -0.00071422127 0.030908605 0.0069118976 -0.008623079 0.03503421 -0.011568493 0.008855405
0.018707527 0.025229499 0.02660916 0.052892808 -0.0002538229 -0.005722966 0.037530314 -0.0056645283
-0.022917181 -0.017018897 -0.04111951 -0.00396053 0.03030166 0.025796173 -0.0063366345 -0.005212151
0.018379463 -0.050317705 -0.07371222 -0.04024919 -0.032624163 -0.01460088 0.020409299 -0.0022452641

weight f4 [64]
00000000: 8a8e 553e 9fa5 4d3e 3eaa c33d 13b7 483e
00000010: bd28 9d3d eb00 0a3e 01b3 423e e169 343e
00000020: adb5 303e 5a6c 083e b0bb c73d 26de 603e
00000030: 1467 823e f5e9 d73d e343 203e 3b3a 403e
00000040: 061b 593e f663 453e bd82 bb3d b992 5f3e
00000050: c313 523e d581 8a3d 5e89 2c3e edb7 e13d
00000060: e383 133e 039f ce3d af51 4a3e 14bd 1e3e
00000070: 5117 253e ba60 243e 62eb 283e 725c f93d
00000080: db5b 443e 97c5 fe3d 470a 093e 4bf9 183e
00000090: 2ce9 753e 51b6 613e e144 d83d 6d87 263e
000000a0: b596 d73d 0f69 1b3e de16 2b3e 5529 563e
000000b0: f040 233e c6aa 2f3e f9ac 793e 0707 833e
000000c0: 5141 d33d 3bac 003e ea4f 0c3e 7a59 553e
000000d0: 9acc 2f3e 34d4 d43d 23a2 193e 804e 403e
000000e0: 1e72 003e e778 2b3e afe7 283e f46a 213e
000000f0: 9559 2f3e 5492 433e b184 d83d 72c1 283e
0.20855156 0.2008271 0.095539555 0.19601087 0.07673786 0.13476913 0.19013597 0.17618515
0.17256804 0.13322583 0.097525954 0.21959743 0.25469267 0.10542671 0.15650897 0.18772213
0.21201715 0.19276413 0.09155796 0.21833314 0.20515351 0.06763045 0.16849276 0.11021409
0.1440578 0.10088923 0.19757722 0.15501815 0.16122176 0.16052523 0.16496041 0.12175836
0.19175665 0.12440031 0.13382827 0.14938848 0.2401473 0.22042204 0.105600126 0.16262598
0.10526792 0.15176795 0.16707942 0.20914204 0.1594274 0.17154989 0.2438239 0.255913
0.103151925 0.125657 0.1370236 0.20834914 0.17167893 0.10392037 0.15003256 0.18779945
0.12543532 0.1674534 0.1649463 0.15763456 0.17124017 0.19098788 0.10572184 0.16480044

bias f4 [64]
00000000: 14c5 14be cece 1abe aa34 1c3d 27d9 e3bb
00000010: 1ddf 1c3c 8a5d 18be 153f afbc ac5d 3ebd
00000020: c253 6fbd 1c6a 363d 1ca5 00bd f21a bcbd
00000030: d524 32bd 8bf2 333c be8c 09bd 8fda a6bd
00000040: 234a dfbd 5b16 1dbe 1777 503c 785b e1bd
00000050: 3532 2bbe 3ea9 bf3c ce84 98bd 9739 cbbc
00000060: 59ad 8cbd 4269 87bc d9c1 bbbd ae63 dcbd
00000070: f8e1 99bd 685a cfbd 51f8 08be 7076 23bd
00000080: 492a e7bd 9632 8ebd 604c acbd b05c 93bd
00000090: 940c 13be 6654 15be 4ddc 04bc 0232 eabd
000000a0: 39eb 1cbd 6142 63bd e3e1 e9bd ae47 18be
000000b0: 29bb 94bd 06dd e9bd 6fc1 20be 2ac1 24be
000000c0: 410b d0bc 0fee a6bd 455a 95bd d9ef a4bd
000000d0: 5e16 a2bd 6cb9 cb3a 289d c7bc 4e61 11be
000000e0: 4809 d6bc 5519 a1bd b81e 06be 1260 edbd
000000f0: c2cb e4bd 0feb 3ebe 74f5 cabc a772 b9bd
-0.14528304 -0.15117952 0.038136162 -0.006953377 0.009574679 -0.14879432 -0.021392385 -0.04647605
-0.058429487 0.044534788 -0.03140746 -0.09184827 -0.043492157 0.01098312 -0.033581488 -0.081471555
-0.10902812 -0.15340559 0.012723706 -0.110037744 -0.16718371 0.02339613 -0.074472055 -0.024807734
-0.06869001 -0.016529683 -0.09167833 -0.107612 -0.07513803 -0.101246655 -0.13375975 -0.039907873
-0.11287362 -0.06943242 -0.08413005 -0.07195413 -0.14360267 -0.14582977 -0.008109164 -0.114353195
-0.038310263 -0.055483226 -0.114200376 -0.14871094 -0.072622605 -0.1141911 -0.15698789 -0.16089311
-0.025395991 -0.08150875 -0.07292608 -0.0805356 -0.079144225 0.0015542931 -0.02436693 -0.14197275
-0.026127473 -0.0786616 -0.13097656 -0.115905896 -0.11171676 -0.18644355 -0.024775244 -0.09055071

running_mean f4 [64]
00000000: fedd 6540 4434 40c2 62d7 01c0 db31 0dbf
00000010: 23d8 f141 c70b 7642 bdd5 51c0 f51f 26c0
00000020: 802e d040 192b e63d 639b 73c2 425d 1140
00000030: d256 81bf 6ee1 76bf 3564 16bf f7b1 08c2
00000040: 1d0a 1fbd 2e8a 37bd 1b6f 50bd 6150 4cbd
00000050: 770f 2fbd a459 7ebc c393 53bc c4aa 19bd
00000060: 7502 07bc e719 45bd 3644 a03a dffb 98bc
00000070: 668a 83bd c09b 54bc 6fea 15bd 81c0 60bd
00000080: 5d5f 5fbd 50b0 c9bc b420 b3bc 9617 36bd
00000090: 8b2d 5cbd b986 3cbd 528a 0fbd 54ad 66bd
000000a0: 3a30 8dbd 4f37 32bd 606e 1abd e0fd 87bd
000000b0: ffea 56bd 460e 77bd f4cb 6bbd e6ac 86bd
000000c0: 5c2e 1abd 7521 0fbd 4440 00bd ef8f 66bd
000000d0: 54d9 76bd 5d14 8bbd 680a 26bd 8ccd 84bd
000000e0: 3411 3cbd 472f 5fbd 3677 34bd a640 41bd
000000f0: e311 39bd 87e0 89bd 2dbc 41bd 3a85 18bd
3.5916743 -48.05104 -2.028771 -0.551542 30.230536 61.5115 -3.2786705 -2.5957005
6.5056763 0.11238689 -60.901745 2.271317 -1.010462 -0.9643773 -0.58746654 -34.173794
-0.038828004 -0.044809513 -0.05088721 -0.049881343 -0.042739358 -0.015524302 -0.012913647 -0.03751637
-0.008240332 -0.048120406 0.001222736 -0.018674789 -0.06422882 -0.012976587 -0.036600526 -0.054871086
-0.054534305 -0.024620205 -0.02186618 -0.044456087 -0.05375437 -0.04602692 -0.035044022 -0.056317642
-0.06893964 -0.043509778 -0.037702918 -0.0664022 -0.052470203 -0.060316347 -0.05756755 -0.065759465
-0.037641868 -0.034944016 -0.03131129 -0.05628961 -0.060265854 -0.06790993 -0.040537268 -0.064845175
-0.045914844 -0.054488447 -0.044059 -0.047180794 -0.045183074 -0.06732278 -0.0472986 -0.03723643

running_var f4 [64]
00000000: e87a 2444 08ee 5644 14f3 9644 1f9f 0645
00000010: 0241 c543 b975 8644 5c9a 0844 a376 ce44
00000020: 15ba 1a45 768f 8b44 9dda 8f44 cd3f 0545
00000030: 78fa 2f44 00d8 cd44 8f2c 4143 fce0 6244
00000040: 28fc 333c 810f 5d3c 329a 333c 10e8 373c
00000050: 3b5f 4e3c 688f bd3b 3b8a 3d3c 50a1 153c
00000060: ad40 193c b8de 3a3c a705 363c 84b0 963b
00000070: 67ed 893c 1f84 fd3b f2ba 073c eceb 233c
00000080: 06df 1e3c a7bb ea3b a16c e03b 66b6 fc3b
00000090: 4d26 323c e279 7e3c 28f2 f13b 8418 083c
000000a0: b345 6b3c b954 083c 09ed 433c 2dfd 2b3c
000000b0: 52e2 153c e596 3e3c be93 183c 5083 663c
000000c0: 282c 203c cd60 233c 5f84 f73b dc9c 803c
000000d0: 5582 413c f02e b03c 8709 3f3c 7619 443c
000000e0: c28f 2a3c f483 5b3c b323 dd3b 7799 0f3c
000000f0: b307 253c f002 473c 553e 0e3c 0e92 343c
657.9204 859.71924 1207.5962 2153.945 394.50787 1075.6788 546.41187 1651.7074
2475.6301 1116.4832 1150.8317 2131.9875 703.9136 1646.75 193.17406 907.5154
0.010985412 0.013492466 0.010962056 0.011224762 0.012595947 0.0057849176 0.011568601 0.009132698
0.009353799 0.011405639 0.011109746 0.004598679 0.016836835 0.0077366973 0.008284317 0.010004979
0.009696728 0.007163483 0.006848887 0.0077121733 0.010873389 0.015531989 0.0073836036 0.008306626
0.014359879 0.008320981 0.011958369 0.0104973735 0.009148197 0.011632656 0.009312568 0.014069393
0.009776153 0.00997181 0.0075536217 0.015699796 0.011810859 0.021506757 0.011659986 0.011968961
0.010410251 0.013398159 0.0067486404 0.008764616 0.010072636 0.012146696 0.008681853 0.01102115
